sample-models/MIPSEL-I-49208-model-13107.tflite (tflite, 36416 bytes, 14 tensors)

sequential_9/conv1d_36/conv1d/ExpandDims_1 i1 [32, 1, 3, 16] scale=0.004727724 zero_point=0
00000000: 0afd d606 0337 24fe 27f1 edf3 2725 330b
00000010: e7f6 ef08 db2e df2e cd0f 4708 fdf4 1f15
00000020: f30b 34e4 e32a 0b13 fcd7 501f ed33 2709
00000030: c710 f0e2 0dcf b7f0 421d e01e 1ed5 cdd7
00000040: 1105 1d1c fb19 e131 d91e 0a00 2308 fae0
00000050: e3d7 d108 c1f9 3af6 e6bd 3439 dad5 1afa
00000060: 1715 eaf2 2f0d f5f6 10e3 372f eacd eedf
00000070: 1fe6 25d0 1415 2cd9 f9f9 1bff df16 fa04
00000080: fb29 f0e6 00e0 1609 e8e1 1bfa 2ff4 e624
00000090: 02f6 c3e6 0329 ead1 4bcd 4027 e709 1f12
000000a0: e1da d00d 2902 d6ed e926 214a 3421 0def
000000b0: 241d f9ab 14d9 edf9 31f4 e02b f4da e2e3
000000c0: 03f7 0a16 f423 2e2d 0dfc f01c fa16 292a
000000d0: bee7 2bde f73e fcc4 1d07 f54d 1e23 16f2
000000e0: 2ed1 e6a5 f5fd d603 d9f7 34da e4e3 29ed
000000f0: 1dda d145 df26 141e e03f 1521 0f53 db05
0.047277242 -0.014183172 -0.19856441 0.028366344 0.014183172 0.26002482 0.17019807 -0.009455448
0.18438123 -0.07091586 -0.089826755 -0.061460413 0.18438123 0.17492579 0.24111393 0.052004963
-0.1181931 -0.047277242 -0.080371305 0.037821792 -0.17492579 0.21747531 -0.15601489 0.21747531
-0.24111393 0.07091586 0.3356684 0.037821792 -0.014183172 -0.056732688 0.14655945 0.099282205
-0.061460413 0.052004963 0.24584165 -0.13237627 -0.13710399 0.19856441 0.052004963 0.089826755
-0.018910896 -0.19383669 0.37821794 0.14655945 -0.089826755 0.24111393 0.18438123 0.042549517
-0.26948026 0.075643584 -0.075643584 -0.14183173 0.061460413 -0.23165847 -0.34512386 -0.075643584
0.31202978 0.13710399 -0.15128717 0.14183173 0.14183173 -0.20329213 -0.24111393 -0.19383669
0.080371305 0.023638621 0.13710399 0.13237627 -0.023638621 0.1181931 -0.14655945 0.23165847
-0.18438123 0.14183173 0.047277242 0.0 0.16547035 0.037821792 -0.028366344 -0.15128717
-0.13710399 -0.19383669 -0.22220303 0.037821792 -0.29784662 -0.033094067 0.27420798 -0.047277242
-0.122920826 -0.3167575 0.24584165 0.26948026 -0.17965351 -0.20329213 0.122920826 -0.028366344
0.108737655 0.099282205 -0.10400993 -0.066188134 0.22220303 0.061460413 -0.052004963 -0.047277242
0.075643584 -0.13710399 0.26002482 0.22220303 -0.10400993 -0.24111393 -0.085099034 -0.15601489
0.14655945 -0.122920826 0.17492579 -0.22693075 0.094554484 0.099282205 0.20801985 -0.18438123
-0.033094067 -0.033094067 0.12764855 -0.004727724 -0.15601489 0.10400993 -0.028366344 0.018910896
-0.023638621 0.19383669 -0.075643584 -0.122920826 0.0 -0.15128717 0.10400993 0.042549517
-0.113465376 -0.14655945 0.12764855 -0.028366344 0.22220303 -0.056732688 -0.122920826 0.17019807
0.009455448 -0.047277242 -0.28839117 -0.122920826 0.014183172 0.19383669 -0.10400993 -0.22220303
0.3545793 -0.24111393 0.30257434 0.18438123 -0.1181931 0.042549517 0.14655945 0.085099034
-0.14655945 -0.17965351 -0.22693075 0.061460413 0.19383669 0.009455448 -0.19856441 -0.089826755
-0.108737655 0.17965351 0.15601489 0.34985158 0.24584165 0.15601489 0.061460413 -0.080371305
0.17019807 0.13710399 -0.033094067 -0.40185654 0.094554484 -0.18438123 -0.089826755 -0.033094067
0.23165847 -0.056732688 -0.15128717 0.20329213 -0.056732688 -0.17965351 -0.14183173 -0.13710399
0.014183172 -0.042549517 0.047277242 0.10400993 -0.056732688 0.16547035 0.21747531 0.21274757
0.061460413 -0.018910896 -0.075643584 0.13237627 -0.028366344 0.10400993 0.19383669 0.19856441
-0.31202978 -0.1181931 0.20329213 -0.16074261 -0.042549517 0.2931189 -0.018910896 -0.28366345
0.13710399 0.033094067 -0.052004963 0.36403474 0.14183173 0.16547035 0.10400993 -0.066188134
0.21747531 -0.22220303 -0.122920826 -0.4302229 -0.052004963 -0.014183172 -0.19856441 0.014183172
-0.18438123 -0.042549517 0.24584165 -0.17965351 -0.13237627 -0.13710399 0.19383669 -0.089826755
0.13710399 -0.17965351 -0.22220303 0.32621294 -0.15601489 0.17965351 0.094554484 0.14183173
-0.15128717 0.29784662 0.099282205 0.15601489 0.07091586 0.3924011 -0.17492579 0.023638621

sequential_9/conv1d_36/conv1d_bias f4 [32]
00000000: 9195 9f3c 8e55 8f3d bce5 623d d5ec 8d3b
00000010: b8e0 e63d 88cb 943d 68c7 0b3d d696 ae3d
00000020: 4273 353d cfe5 f13c 0cd6 793d f501 483d
00000030: 2970 323c d720 193d e7ff c23d 25b2 0e3d
00000040: 845d 5d3d d581 27bd eb0b 8e3d a82e bd3d
00000050: 5793 a03c dc59 453d 0610 333d 648f 3d3d
00000060: 50c4 233d 466c 363d 14ea db3d a5c7 f53b
00000070: 2ac0 5a3d b76c b03d c98d d73c eb96 773d
0.019480499 0.0699874 0.055394873 0.004331211 0.112733305 0.07265383 0.034125715 0.085248634
0.04429937 0.029528527 0.060995147 0.04882999 0.010890999 0.037384834 0.09521466 0.03483786
0.05404426 -0.0408953 0.06935867 0.092374146 0.019601507 0.0481814 0.043716453 0.046279326
0.03998214 0.04453685 0.10738006 0.007500606 0.05340592 0.08614486 0.026312726 0.06044666

sequential_9/conv1d_37/conv1d/ExpandDims_1 i1 [32, 1, 3, 32] scale=0.0040579876 zero_point=0
00000000: 3922 0b2c e7f6 310c 0c2d cab2 12d8 1319
00000010: c503 d9fa 0242 0499 1509 0328 ff17 ebe5
00000020: efcd ed18 2605 0841 d904 0b1c f91d e9e9
00000030: 2803 0a1c c32b 02eb db04 c624 0dda ef0f
00000040: bc07 c619 0d03 dd05 bdf0 dfc9 1cae d3d3
00000050: dff5 11d8 0d07 2333 0102 cdb0 a137 08d8
00000060: 1247 c539 f52e edf8 e91d 12ef 2121 16fc
00000070: 0b02 edd5 0ff1 f6fb e800 1c18 c93c fad6
00000080: 1ae2 1010 30cc 3312 2d30 f2bb 23d4 2036
00000090: e913 a703 db07 f4ae db1d eb2e 38f5 2616
000000a0: fee2 26a9 19d3 bdff d2e8 1317 14e7 dc00
000000b0: 04d1 2be7 09fc e0d0 b0d1 dd24 1dbe ff1f
000000c0: 130b 132b 1735 ead6 03fc 24f0 d6e9 d949
000000d0: 1e11 0efd 2001 0708 27d1 eaf2 f1d8 29ee
000000e0: f23b 0115 043a dcdf f617 8117 09ea 2010
000000f0: f3dc e6e8 441c b5e0 efe7 22e3 62fe f616
0.23130529 0.13797158 0.044637863 0.17855145 -0.10144969 -0.040579878 0.1988414 0.04869585
0.04869585 0.18260944 -0.21913134 -0.31652305 0.07304378 -0.16231951 0.07710177 0.10144969
-0.23942126 0.012173963 -0.15826152 -0.024347926 0.008115975 0.26782718 0.01623195 -0.4179727
0.08521774 0.03652189 0.012173963 0.16231951 -0.0040579876 0.09333371 -0.08521774 -0.10956567
-0.06898579 -0.20695737 -0.07710177 0.0973917 0.15420353 0.020289939 0.0324639 0.26376918
-0.15826152 0.01623195 0.044637863 0.11362365 -0.028405912 0.11768164 -0.09333371 -0.09333371
0.16231951 0.012173963 0.040579878 0.11362365 -0.24753724 0.17449346 0.008115975 -0.08521774
-0.15014555 0.01623195 -0.23536327 0.14608756 0.05275384 -0.15420353 -0.06898579 0.060869813
-0.27594316 0.028405912 -0.23536327 0.10144969 0.05275384 0.012173963 -0.14202957 0.020289939
-0.27188516 -0.0649278 -0.13391359 -0.22318932 0.11362365 -0.33275497 -0.18260944 -0.18260944
-0.13391359 -0.044637863 0.06898579 -0.16231951 0.05275384 0.028405912 0.14202957 0.20695737
0.0040579876 0.008115975 -0.20695737 -0.32463902 -0.38550884 0.22318932 0.0324639 -0.16231951
0.07304378 0.2881171 -0.23942126 0.23130529 -0.044637863 0.18666743 -0.07710177 -0.0324639
-0.09333371 0.11768164 0.07304378 -0.06898579 0.13391359 0.13391359 0.089275725 -0.01623195
0.044637863 0.008115975 -0.07710177 -0.17449346 0.060869813 -0.060869813 -0.040579878 -0.020289939
-0.0973917 0.0 0.11362365 0.0973917 -0.22318932 0.24347925 -0.024347926 -0.17043547
0.10550768 -0.121739626 0.0649278 0.0649278 0.1947834 -0.21101536 0.20695737 0.07304378
0.18260944 0.1947834 -0.056811824 -0.28000113 0.14202957 -0.17855145 0.1298556 0.21913134
-0.09333371 0.07710177 -0.3611609 0.012173963 -0.15014555 0.028405912 -0.04869585 -0.33275497
-0.15014555 0.11768164 -0.08521774 0.18666743 0.2272473 -0.044637863 0.15420353 0.089275725
-0.008115975 -0.121739626 0.15420353 -0.35304493 0.10144969 -0.18260944 -0.27188516 -0.0040579876
-0.18666743 -0.0973917 0.07710177 0.09333371 0.081159756 -0.10144969 -0.14608756 0.0
0.01623195 -0.19072542 0.17449346 -0.10144969 0.03652189 -0.01623195 -0.1298556 -0.1947834
-0.32463902 -0.19072542 -0.14202957 0.14608756 0.11768164 -0.26782718 -0.0040579876 0.12579761
0.07710177 0.044637863 0.07710177 0.17449346 0.09333371 0.21507335 -0.089275725 -0.17043547
0.012173963 -0.01623195 0.14608756 -0.0649278 -0.17043547 -0.09333371 -0.15826152 0.2962331
0.121739626 0.06898579 0.056811824 -0.012173963 0.1298556 0.0040579876 0.028405912 0.0324639
0.15826152 -0.19072542 -0.089275725 -0.056811824 -0.060869813 -0.16231951 0.16637748 -0.07304378
-0.056811824 0.23942126 0.0040579876 0.08521774 0.01623195 0.23536327 -0.14608756 -0.13391359
-0.040579878 0.09333371 -0.5153644 0.09333371 0.03652189 -0.089275725 0.1298556 0.0649278
-0.05275384 -0.14608756 -0.10550768 -0.0973917 0.27594316 0.11362365 -0.30434906 -0.1298556
-0.06898579 -0.10144969 0.13797158 -0.11768164 0.3976828 -0.008115975 -0.040579878 0.089275725

sequential_9/conv1d_37/conv1d_bias f4 [32]
00000000: ce7f bcbb b8dc 32bd 6664 d43c cb82 193d
00000010: e901 44bc 143b fabc 8e46 6a3c 591d bebc
00000020: 39f6 4d3c 5959 983b 3013 b83c 0ba6 903c
00000030: a831 2fbd 2623 a3bc 90d4 95bc e2d0 9e3b
00000040: 3022 f5bb a3a7 103d afbf a1bc 871e 023d
00000050: 0df4 473d 50ba 1e3b 2fea 41bd b083 64bc
00000060: d74d beba 6de4 a4bb d653 aebc 0295 59bd
00000070: e4f7 a838 38b4 1dbd 66d0 92bc 24e6 41bc
-0.00575254 -0.043667525 0.02592678 0.03747825 -0.011963346 -0.030545749 0.014299048 -0.023207353
0.012570911 0.004649323 0.022470087 0.0176573 -0.042771965 -0.019914221 -0.018289834 0.004846678
-0.007480882 0.03531612 -0.019744722 0.031767394 0.04881673 0.0024219938 -0.047342476 -0.013947412
-0.0014519048 -0.0050321133 -0.02128021 -0.05312062 8.0570375e-05 -0.038501948 -0.017921638 -0.011834655

sequential_9/conv1d_38/conv1d/ExpandDims_1 i1 [64, 1, 3, 32] scale=0.004312555 zero_point=0
00000000: 1c21 f61d c524 1803 17d8 f205 f2df c40a
00000010: 0104 f003 fae3 f60e 1f03 c504 0b11 0b2e
00000020: f60f c2f9 eef2 13f7 d4bb 00ef f9d4 e7fa
00000030: e6f7 02eb c3b6 1b01 1510 b70e f308 0aed
00000040: 19ff b223 d31f fb28 48fe 113b 0c0a 09bb
00000050: 2efa 001f d807 48bb eef6 ec0a e012 181d
00000060: 22f9 eff3 f8e3 1afd 0ce0 2feb ebf8 cc16
00000070: 0314 e31f f9d8 e125 0310 f810 eb11 041d
00000080: 1b18 d012 0c0c 24fe f7f0 2a09 bef5 e534
00000090: f628 181c eadf 0609 030c c723 1924 ef00
000000a0: 00de f80c ddf9 2f14 221e 0f2f e0e0 e0da
000000b0: 1817 e626 1b0c fdc0 e024 f303 e506 e6dc
000000c0: 06f7 f4f8 ee07 f91e 35df 1b29 c5ac 01e3
000000d0: 0d1a 03f4 15cd 19fc e826 c11a 3a02 f7cc
000000e0: fb05 b802 2517 f62b 0602 171e 1d03 09e0
000000f0: 06d4 16fe a616 01db fae3 2003 222b f6fc
0.12075154 0.14231431 -0.043125547 0.12506409 -0.25444072 0.15525198 0.10350132 0.012937665
0.09918876 -0.17250219 -0.06037577 0.021562774 -0.06037577 -0.14231431 -0.2587533 0.043125547
0.004312555 0.01725022 -0.06900088 0.012937665 -0.02587533 -0.12506409 -0.043125547 0.06037577
0.1336892 0.012937665 -0.25444072 0.01725022 0.047438104 0.07331343 0.047438104 0.19837752
-0.043125547 0.064688325 -0.2673784 -0.030187884 -0.07762599 -0.06037577 0.08193854 -0.038812995
-0.18975241 -0.2975663 0.0 -0.07331343 -0.030187884 -0.18975241 -0.10781387 -0.02587533
-0.112126425 -0.038812995 0.00862511 -0.090563655 -0.26306584 -0.31912905 0.11643898 0.004312555
0.090563655 0.06900088 -0.3148165 0.06037577 -0.056063212 0.03450044 0.043125547 -0.08193854
0.10781387 -0.004312555 -0.3363793 0.15093942 -0.19406497 0.1336892 -0.021562774 0.17250219
0.31050396 -0.00862511 0.07331343 0.25444072 0.05175066 0.043125547 0.038812995 -0.2975663
0.19837752 -0.02587533 0.0 0.1336892 -0.17250219 0.030187884 0.31050396 -0.2975663
-0.07762599 -0.043125547 -0.086251095 0.043125547 -0.13800175 0.07762599 0.10350132 0.12506409
0.14662686 -0.030187884 -0.07331343 -0.056063212 -0.03450044 -0.12506409 0.112126425 -0.012937665
0.05175066 -0.13800175 0.20269008 -0.090563655 -0.090563655 -0.03450044 -0.22425285 0.09487621
0.012937665 0.086251095 -0.12506409 0.1336892 -0.030187884 -0.17250219 -0.1336892 0.15956452
0.012937665 0.06900088 -0.03450044 0.06900088 -0.090563655 0.07331343 0.01725022 0.12506409
0.11643898 0.10350132 -0.20700264 0.07762599 0.05175066 0.05175066 0.15525198 -0.00862511
-0.038812995 -0.06900088 0.18112731 0.038812995 -0.28462863 -0.047438104 -0.11643898 0.22425285
-0.043125547 0.17250219 0.10350132 0.12075154 -0.09487621 -0.14231431 0.02587533 0.038812995
0.012937665 0.05175066 -0.24581562 0.15093942 0.10781387 0.15525198 -0.07331343 0.0
0.0 -0.14662686 -0.03450044 0.05175066 -0.15093942 -0.030187884 0.20269008 0.086251095
0.14662686 0.12937665 0.064688325 0.20269008 -0.13800175 -0.13800175 -0.13800175 -0.16387708
0.10350132 0.09918876 -0.112126425 0.16387708 0.11643898 0.05175066 -0.012937665 -0.2760035
-0.13800175 0.15525198 -0.056063212 0.012937665 -0.11643898 0.02587533 -0.112126425 -0.15525198
0.02587533 -0.038812995 -0.05175066 -0.03450044 -0.07762599 0.030187884 -0.030187884 0.12937665
0.22856541 -0.14231431 0.11643898 0.17681475 -0.25444072 -0.36225462 0.004312555 -0.12506409
0.056063212 0.112126425 0.012937665 -0.05175066 0.090563655 -0.21994029 0.10781387 -0.01725022
-0.10350132 0.16387708 -0.27169096 0.112126425 0.25012818 0.00862511 -0.038812995 -0.22425285
-0.021562774 0.021562774 -0.31050396 0.00862511 0.15956452 0.09918876 -0.043125547 0.18543985
0.02587533 0.00862511 0.09918876 0.12937665 0.12506409 0.012937665 0.038812995 -0.13800175
0.02587533 -0.18975241 0.09487621 -0.00862511 -0.38812995 0.09487621 0.004312555 -0.15956452
-0.02587533 -0.12506409 0.13800175 0.012937665 0.14662686 0.18543985 -0.043125547 -0.01725022

sequential_9/conv1d_38/conv1d_bias f4 [64]
00000000: 700e 833d fd57 d53d a9e4 a3bd 53e8 513d
00000010: 81ea e9bb c284 bd3c 796a 5d3e ece8 a03d
00000020: 0f02 9abd fa5a 983d 33f3 863d 3844 843d
00000030: 79e7 c03d 2ca0 a63d 7b01 603e 75ea 7fbd
00000040: 297d 023e 9fa1 7a3d 1a8b 833d 4ad8 8bba
00000050: 06da 8ebd 4b9f 223c c89b 2e3e e561 ce3d
00000060: 4213 71bb dfc8 bb3d ebb0 9fbc 5792 853d
00000070: 8e70 b03d 5360 16bc 4b02 7ebd 1751 283d
00000080: 87e1 c0bc f331 2a3d ab47 f0bd ddb9 933e
00000090: 70e9 5a3e 0a2c 933c 2da9 883e 80c3 2abd
000000a0: cfdf 483d e460 e9bc 6c30 543d 7d7b 623d
000000b0: 1e84 f1bc 48b0 fbbc 0194 cf3c e13f 183e
000000c0: 8bea 133e 8e9f 33bd ccc0 fc3d f824 a6bd
000000d0: 30a2 803c 4489 063e 1d75 043e cb93 333e
000000e0: 96eb b6bc 3fb9 073d 0588 8d3d ce3e 053e
000000f0: d13a e63d a76b 13bd c947 bd3d 9509 de3d
0.06399238 0.10417173 -0.08002598 0.051246952 -0.0071385507 0.023134593 0.21622647 0.07856926
-0.07519924 0.074392274 0.06589355 0.06458324 0.0941915 0.08136019 0.21875565 -0.062479455
0.12743057 0.06118929 0.06423016 -0.0010669318 -0.069751784 0.009925674 0.17051613 0.10077266
-0.003678516 0.091691725 -0.01949354 0.06522053 0.08615218 -0.009178239 -0.062013905 0.04109296
-0.02354504 0.04155154 -0.117324196 0.2885274 0.21378112 0.017965335 0.2669157 -0.04169035
0.049041566 -0.028488584 0.05180399 0.05529355 -0.029481944 -0.030723706 0.025339128 0.14868118
0.1444494 -0.043853335 0.123414606 -0.0811252 0.015702337 0.131383 0.129353 0.17536847
-0.022329133 0.03313565 0.06910709 0.1301224 0.11241687 -0.035991337 0.092422076 0.108416714

sequential_9/conv1d_39/conv1d/ExpandDims_1 i1 [64, 1, 3, 64] scale=0.004220126 zero_point=0
00000000: fafe 0903 e8f4 d801 29fe eef2 fb1d f8f5
00000010: 1dec 1803 0aeb 2025 f0fe 0a14 eeff f0fb
00000020: fc1a 0ed8 1224 0119 0ddb f2f1 f1f5 0627
00000030: ecee f419 2bf7 0014 e0ee eb03 1800 cd09
00000040: 0af9 ed12 0818 eec9 0108 f5f4 0ce1 1100
00000050: f807 ff0f dcea ecf0 e3fb ecf1 0a13 fde0
00000060: f80c fc11 0406 ebf4 1f13 f30b fb17 d904
00000070: 24d4 02f0 f4e5 23f5 0b08 f404 09ef 0306
00000080: 07e9 1027 2e0f 1946 0018 f7fd f4d9 e92c
00000090: d4d0 fe24 1fd7 f040 17e3 2923 f42b 1103
000000a0: 0810 3fdd f029 d11e d006 0602 f72a 01f7
000000b0: cff9 2d1b 0312 9ac7 ce18 ea19 d019 05f1
000000c0: 14ff f1ff f30d 0710 dffe f0f8 0e20 f80f
000000d0: fceb 02f8 2504 0008 17ef eded f909 0510
000000e0: 02f3 fecc e8e3 03d1 fafa ef01 f8df 01db
000000f0: 00ec f210 f50e 01f7 02d7 f503 f103 f202
-0.025320757 -0.008440252 0.037981138 0.012660379 -0.10128303 -0.050641514 -0.16880505 0.004220126
0.17302518 -0.008440252 -0.075962275 -0.059081767 -0.021100631 0.12238366 -0.03376101 -0.046421386
0.12238366 -0.084402524 0.10128303 0.012660379 0.042201262 -0.08862265 0.13504404 0.15614466
-0.06752202 -0.008440252 0.042201262 0.084402524 -0.075962275 -0.004220126 -0.06752202 -0.021100631
-0.016880505 0.109723285 0.059081767 -0.16880505 0.075962275 0.15192455 0.004220126 0.10550316
0.054861642 -0.15614466 -0.059081767 -0.06330189 -0.06330189 -0.046421386 0.025320757 0.16458492
-0.084402524 -0.075962275 -0.050641514 0.10550316 0.18146543 -0.037981138 0.0 0.084402524
-0.13504404 -0.075962275 -0.08862265 0.012660379 0.10128303 0.0 -0.21522644 0.037981138
0.042201262 -0.029540883 -0.080182396 0.075962275 0.03376101 0.10128303 -0.075962275 -0.23210694
0.004220126 0.03376101 -0.046421386 -0.050641514 0.050641514 -0.13082391 0.07174215 0.0
-0.03376101 0.029540883 -0.004220126 0.06330189 -0.15192455 -0.09284277 -0.084402524 -0.06752202
-0.12238366 -0.021100631 -0.084402524 -0.06330189 0.042201262 0.080182396 -0.012660379 -0.13504404
-0.03376101 0.050641514 -0.016880505 0.07174215 0.016880505 0.025320757 -0.08862265 -0.050641514
0.13082391 0.080182396 -0.054861642 0.046421386 -0.021100631 0.0970629 -0.16458492 0.016880505
0.15192455 -0.18568555 0.008440252 -0.06752202 -0.050641514 -0.113943405 0.14770442 -0.046421386
0.046421386 0.03376101 -0.050641514 0.016880505 0.037981138 -0.07174215 0.012660379 0.025320757
0.029540883 -0.0970629 0.06752202 0.16458492 0.1941258 0.06330189 0.10550316 0.29540884
0.0 0.10128303 -0.037981138 -0.012660379 -0.050641514 -0.16458492 -0.0970629 0.18568555
-0.18568555 -0.20256606 -0.008440252 0.15192455 0.13082391 -0.17302518 -0.06752202 0.27008808
0.0970629 -0.12238366 0.17302518 0.14770442 -0.050641514 0.18146543 0.07174215 0.012660379
0.03376101 0.06752202 0.26586795 -0.14770442 -0.06752202 0.17302518 -0.19834593 0.12660378
-0.20256606 0.025320757 0.025320757 0.008440252 -0.037981138 0.1772453 0.004220126 -0.037981138
-0.20678619 -0.029540883 0.18990567 0.113943405 0.012660379 0.075962275 -0.43045288 -0.2405472
-0.21100631 0.10128303 -0.09284277 0.10550316 -0.20256606 0.10550316 0.021100631 -0.06330189
0.084402524 -0.004220126 -0.06330189 -0.004220126 -0.054861642 0.054861642 0.029540883 0.06752202
-0.13926417 -0.008440252 -0.06752202 -0.03376101 0.059081767 0.13504404 -0.03376101 0.06330189
-0.016880505 -0.08862265 0.008440252 -0.03376101 0.15614466 0.016880505 0.0 0.03376101
0.0970629 -0.07174215 -0.080182396 -0.080182396 -0.029540883 0.037981138 0.021100631 0.06752202
0.008440252 -0.054861642 -0.008440252 -0.21944657 -0.10128303 -0.12238366 0.012660379 -0.19834593
-0.025320757 -0.025320757 -0.07174215 0.004220126 -0.03376101 -0.13926417 0.004220126 -0.15614466
0.0 -0.084402524 -0.059081767 0.06752202 -0.046421386 0.059081767 0.004220126 -0.037981138
0.008440252 -0.17302518 -0.046421386 0.012660379 -0.06330189 0.012660379 -0.059081767 0.008440252

sequential_9/conv1d_39/conv1d_bias f4 [64]
00000000: 0e84 6cbd 3c45 4ebc 1c8b b03d 0ff5 8d3c
00000010: 4ead 173e 3eda c93c 3093 3c3b 6ac2 a03c
00000020: 6518 3bbd 1750 7bbc 5547 6eba 10da 79b8
00000030: 1bbd 933c 4321 113d f9ab 69bc b4c9 d3bc
00000040: f849 f23c 2b68 903d acd7 f93c 1f21 f43c
00000050: c9d8 e43b e730 de3c 6c09 edbb 1a99 a8b9
00000060: 0b6c 433d c1bf 23bd 66ac c53d a713 923d
00000070: ca58 04bd fb67 693c 5fdc 79bd ee23 9bbb
00000080: 1e5b 65bd 8b6b 003d 429d c6bd 9854 e13d
00000090: 5589 3abd 6bc5 22bd cf69 293d c34d 93bd
000000a0: 53a0 a3bc 6c61 41bd 5d77 493d 36bc 183d
000000b0: c07d 81bd ab9c 293e ee19 263c c8e7 62bc
000000c0: b4fa 6ebd fac2 fcbc 7ce3 f93c d975 1bbd
000000d0: 0d5a 8dbc e4f6 d13c f42a ab3d fe4e 9cbc
000000e0: b5e4 87bc d7d2 9c3d ce58 ddbd 4593 603b
000000f0: b1a9 893d 726a 393d 76fa bd3c 852a 5abc
-0.057743125 -0.012589749 0.08620283 0.017328767 0.14812204 0.024640199 0.0028774254 0.019623954
-0.04567756 -0.015338919 -0.0009089609 -5.9569313e-05 0.018034508 0.03543211 -0.014262193 -0.025853015
0.029576287 0.070511185 0.030498348 0.02980095 0.0069838506 0.027122928 -0.007233789 -0.00032157527
0.04771046 -0.039977793 0.09652023 0.07132655 -0.03231124 0.014245982 -0.061001178 -0.0047345078
-0.0559951 0.03135256 -0.09697963 0.11002463 -0.045541126 -0.039739054 0.041360673 -0.07192566
-0.01997391 -0.04721205 0.0491861 0.037288867 -0.06322813 0.1656367 0.010138018 -0.013849206
-0.058344558 -0.03085469 0.03050398 -0.037954185 -0.017254854 0.025630422 0.08357802 -0.019080635
-0.016588548 0.07657402 -0.10807954 0.0034267467 0.06721819 0.04526753 0.023190718 -0.0133158015

sequential_9/dense_27/MatMul/ReadVariableOp/transpose i1 [32, 128] scale=0.0042842436 zero_point=0
00000000: d2dd 3d16 fafe ebf2 19e2 0e13 26f6 2118
00000010: eefc 2308 df03 dee1 07de 0df4 0023 14f3
00000020: 1335 c913 1403 efe9 03dd 0119 2236 14fc
00000030: 2e24 24e5 0ce7 240b dc2c 24d3 3aee 19d8
00000040: f71f 180a f725 c5e3 e1ec 0cf8 31de 07ec
00000050: 13e6 00f9 162a c9f0 fe01 d4fa 28fb dbf7
00000060: 2619 d208 f1f2 1410 f32b 08d7 f505 e209
00000070: e8fc 1118 fefc dde9 fd53 cee4 2aee e7df
00000080: f510 152e e73e 28fe 1e08 2a31 1408 ffe9
00000090: 2121 0918 1216 0925 3333 501b 22fb 0c13
000000a0: 0926 011c 1d37 3e0a ed0f f321 2215 fc58
000000b0: 1fe8 5b1a dd37 1038 101d 1001 2a32 1519
000000c0: b1e1 28e1 26f4 e431 1be0 0f22 cbdc f70b
000000d0: e9f9 ea41 ef15 d841 0ee9 e6eb e8f9 e2f4
000000e0: ed04 bb19 0607 daf3 b80b 15e0 bb05 2ef1
000000f0: e3e2 cb2a 292b 283a 1415 4313 1eed 0dfc
-0.1970752 -0.14994852 0.26133886 0.09425336 -0.02570546 -0.008568487 -0.08996911 -0.05997941
0.10710609 -0.12852731 0.05997941 0.081400625 0.16280125 -0.042842437 0.14138004 0.10282184
-0.077116385 -0.017136974 0.14994852 0.03427395 -0.14138004 0.01285273 -0.14566427 -0.13281155
0.029989704 -0.14566427 0.055695165 -0.05141092 0.0 0.14994852 0.08568487 -0.055695165
0.081400625 0.22706491 -0.2356334 0.081400625 0.08568487 0.01285273 -0.07283214 -0.0985376
0.01285273 -0.14994852 0.0042842436 0.10710609 0.14566427 0.23134916 0.08568487 -0.017136974
0.1970752 0.15423277 0.15423277 -0.11567458 0.05141092 -0.10710609 0.15423277 0.04712668
-0.15423277 0.18850672 0.15423277 -0.19279096 0.24848613 -0.077116385 0.10710609 -0.17136975
-0.038558193 0.13281155 0.10282184 0.042842437 -0.038558193 0.15851702 -0.25277036 -0.124243066
-0.13281155 -0.08568487 0.05141092 -0.03427395 0.20992793 -0.14566427 0.029989704 -0.08568487
0.081400625 -0.11139033 0.0 -0.029989704 0.09425336 0.17993823 -0.2356334 -0.0685479
-0.008568487 0.0042842436 -0.18850672 -0.02570546 0.17136975 -0.021421218 -0.15851702 -0.038558193
0.16280125 0.10710609 -0.1970752 0.03427395 -0.06426366 -0.05997941 0.08568487 0.0685479
-0.055695165 0.18422247 0.03427395 -0.17565398 -0.04712668 0.021421218 -0.12852731 0.038558193
-0.10282184 -0.017136974 0.07283214 0.10282184 -0.008568487 -0.017136974 -0.14994852 -0.0985376
-0.01285273 0.35559222 -0.21421218 -0.11995882 0.17993823 -0.077116385 -0.10710609 -0.14138004
-0.04712668 0.0685479 0.08996911 0.1970752 -0.10710609 0.2656231 0.17136975 -0.008568487
0.12852731 0.03427395 0.17993823 0.20992793 0.08568487 0.03427395 -0.0042842436 -0.0985376
0.14138004 0.14138004 0.038558193 0.10282184 0.077116385 0.09425336 0.038558193 0.15851702
0.21849643 0.21849643 0.3427395 0.11567458 0.14566427 -0.021421218 0.05141092 0.081400625
0.038558193 0.16280125 0.0042842436 0.11995882 0.124243066 0.2356334 0.2656231 0.042842437
-0.081400625 0.06426366 -0.055695165 0.14138004 0.14566427 0.08996911 -0.017136974 0.37701344
0.13281155 -0.10282184 0.38986617 0.11139033 -0.14994852 0.2356334 0.0685479 0.23991764
0.0685479 0.124243066 0.0685479 0.0042842436 0.17993823 0.21421218 0.08996911 0.10710609
-0.33845523 -0.13281155 0.17136975 -0.13281155 0.16280125 -0.05141092 -0.11995882 0.20992793
0.11567458 -0.1370958 0.06426366 0.14566427 -0.22706491 -0.15423277 -0.038558193 0.04712668
-0.0985376 -0.029989704 -0.09425336 0.27847582 -0.07283214 0.08996911 -0.17136975 0.27847582
0.05997941 -0.0985376 -0.11139033 -0.08996911 -0.10282184 -0.029989704 -0.12852731 -0.05141092
-0.081400625 0.017136974 -0.2956128 0.10710609 0.02570546 0.029989704 -0.16280125 -0.055695165
-0.30846554 0.04712668 0.08996911 -0.1370958 -0.2956128 0.021421218 0.1970752 -0.06426366
-0.124243066 -0.12852731 -0.22706491 0.17993823 0.17565398 0.18422247 0.17136975 0.24848613
0.08568487 0.08996911 0.28704432 0.081400625 0.12852731 -0.081400625 0.055695165 -0.017136974

sequential_9/dense_27/MatMul_bias f4 [32]
00000000: 6241 f43d 39fd 053e 856c c53b 15e8 953e
00000010: 4e44 9abc e68d c6bd 2203 be3d d937 4a3c
00000020: 6739 2dbc eeea 133e d12f 563e fed2 de3d
00000030: 02f0 823d 118a 813c 044a 8f3d be36 023e
00000040: 500c 3abc 5e97 fb3b 6678 383e 046b c33e
00000050: 8e33 5c3e 2ba6 973c 2e30 ddbd f0b8 fb3d
00000060: 6bfb 14bd 00e3 353e 022a a43e be01 933d
00000070: 0d1f 953c 60c0 503e b8cd 5e3d f703 eabd
0.11926533 0.13084878 0.0060248994 0.29278627 -0.018831398 -0.09695034 0.09277941 0.012342417
-0.010572768 0.14445087 0.20916678 0.10880087 0.06393434 0.015812906 0.06996539 0.12716195
-0.011355475 0.0076779565 0.18014678 0.38167584 0.21504042 0.018511852 -0.10800205 0.122911334
-0.036372583 0.17762375 0.320633 0.07178067 0.018203283 0.20385885 0.054395407 -0.114265375

sequential_9/dense_28/MatMul/ReadVariableOp/transpose i1 [64, 32] scale=0.004894519 zero_point=0
00000000: de24 eaf0 1807 1335 ffe1 e1d6 e62f 1007
00000010: 15df ef0f 1afa 22cb 3315 db11 dee0 34e6
00000020: 192f d549 df12 ede6 e610 e52f 1b07 20e4
00000030: ed23 efde ddf2 d5fb 3dde 07c6 13f6 39d4
00000040: 1fea 0a2a d326 14e1 36f1 ea28 cec5 1225
00000050: fce4 d912 04e3 0428 b757 cc0c fde4 00ed
00000060: 00ee ebf6 1f14 f621 0428 16f4 0309 2f14
00000070: d4c1 ebfc fadd e52e d72a f41f f63c 14ee
00000080: fd1f 10eb 1f08 08f3 2b04 f7f6 d829 1c16
00000090: d72d d2e9 fe0a 01cc fe01 400a 2adf c211
000000a0: f8d4 3501 bafd d100 e3d8 fe0a efe9 3833
000000b0: 40d9 e84c 3f2b d327 0e2f cc0e 2a13 31eb
000000c0: f8ea dcf4 00d4 fa06 f332 e3ce 1b3d 2e1d
000000d0: f0fd 1c1b f71c e1de ef13 2518 13fb 1dfc
000000e0: ee04 09e9 1aee 19e4 1531 2d28 25fe f1ed
000000f0: e424 06cf 292a 53dc e041 3432 f60c d843
-0.16641365 0.17620268 -0.10767943 -0.07831231 0.11746846 0.034261636 0.09299587 0.25940952
-0.004894519 -0.15173009 -0.15173009 -0.2055698 -0.1272575 0.2300424 0.07831231 0.034261636
0.1027849 -0.16151914 -0.083206825 0.07341779 0.1272575 -0.029367115 0.16641365 -0.25940952
0.24962048 0.1027849 -0.18109721 0.083206825 -0.16641365 -0.15662462 0.254515 -0.1272575
0.12236298 0.2300424 -0.21046433 0.3572999 -0.16151914 0.08810134 -0.09299587 -0.1272575
-0.1272575 0.07831231 -0.13215202 0.2300424 0.13215202 0.034261636 0.15662462 -0.13704655
-0.09299587 0.17130817 -0.083206825 -0.16641365 -0.17130817 -0.06852327 -0.21046433 -0.024472596
0.2985657 -0.16641365 0.034261636 -0.2838821 0.09299587 -0.048945192 0.2789876 -0.21535885
0.15173009 -0.10767943 0.048945192 0.2055698 -0.22025336 0.18599173 0.097890384 -0.15173009
0.26430404 -0.07341779 -0.10767943 0.19578077 -0.24472596 -0.28877664 0.08810134 0.18109721
-0.019578077 -0.13704655 -0.19088624 0.08810134 0.019578077 -0.14194106 0.019578077 0.19578077
-0.3572999 0.42582318 -0.254515 0.05873423 -0.014683558 -0.13704655 0.0 -0.09299587
0.0 -0.08810134 -0.1027849 -0.048945192 0.15173009 0.097890384 -0.048945192 0.16151914
0.019578077 0.19578077 0.10767943 -0.05873423 0.014683558 0.04405067 0.2300424 0.097890384
-0.21535885 -0.3083547 -0.1027849 -0.019578077 -0.029367115 -0.17130817 -0.13215202 0.22514789
-0.2006753 0.2055698 -0.05873423 0.15173009 -0.048945192 0.29367116 0.097890384 -0.08810134
-0.014683558 0.15173009 0.07831231 -0.1027849 0.15173009 0.039156154 0.039156154 -0.06362875
0.21046433 0.019578077 -0.04405067 -0.048945192 -0.19578077 0.2006753 0.13704655 0.10767943
-0.2006753 0.22025336 -0.22514789 -0.112573944 -0.009789038 0.048945192 0.004894519 -0.254515
-0.009789038 0.004894519 0.31324923 0.048945192 0.2055698 -0.16151914 -0.30346018 0.083206825
-0.039156154 -0.21535885 0.25940952 0.004894519 -0.34261635 -0.014683558 -0.2300424 0.0
-0.14194106 -0.19578077 -0.009789038 0.048945192 -0.083206825 -0.112573944 0.2740931 0.24962048
0.31324923 -0.19088624 -0.11746846 0.37198347 0.3083547 0.21046433 -0.22025336 0.19088624
0.06852327 0.2300424 -0.254515 0.06852327 0.2055698 0.09299587 0.23983145 -0.1027849
-0.039156154 -0.10767943 -0.17620268 -0.05873423 0.0 -0.21535885 -0.029367115 0.029367115
-0.06362875 0.24472596 -0.14194106 -0.24472596 0.13215202 0.2985657 0.22514789 0.14194106
-0.07831231 -0.014683558 0.13704655 0.13215202 -0.04405067 0.13704655 -0.15173009 -0.16641365
-0.083206825 0.09299587 0.18109721 0.11746846 0.09299587 -0.024472596 0.14194106 -0.019578077
-0.08810134 0.019578077 0.04405067 -0.112573944 0.1272575 -0.08810134 0.12236298 -0.13704655
0.1027849 0.23983145 0.22025336 0.19578077 0.18109721 -0.009789038 -0.07341779 -0.09299587
-0.13704655 0.17620268 0.029367115 -0.23983145 0.2006753 0.2055698 0.40624508 -0.17620268
-0.15662462 0.31814376 0.254515 0.24472596 -0.048945192 0.05873423 -0.19578077 0.32793278

sequential_9/dense_28/MatMul_bias f4 [64]
00000000: 24f2 11bd 4ff8 873d 61c3 22bb d04e 283e
00000010: 1499 81bd 1fc1 d83d f59f 003d 582f 9d3c
00000020: 6123 b3bd 9a4f ebbc ac73 ad3d d8ce 543d
00000030: 8e76 763d cc52 d8bc 3aad 82bd 8202 373e
00000040: 30b5 31bb 3714 23bd 8112 aa3a d526 693a
00000050: 9473 87bc a13a 063e 53b6 6abd db18 b3bc
00000060: 37c0 29be 02b8 143e 9dca c4bd 40c1 c83d
00000070: 6b5d 89bd c072 843d 3aac 3fbd 8431 393e
00000080: 2b57 3ebc 06ab c93c 026f 4e3c 356f 5f3d
00000090: f655 8cbc 47fa 263e ffb9 71bb f1e7 453e
000000a0: 09d5 debc d2c9 0bbe 5364 3e3d f86c d43d
000000b0: 6217 a7bd cb00 1fbd 2d36 a53e 536f 7f3d
000000c0: a20d 323d 6b73 f23d f8aa e03d aab8 8d3d
000000d0: 5359 ffbd 5a63 f13c b861 c3bd 751e d23d
000000e0: 168d 223e 51fc 173d 1d0e 50bd 11bb d3bd
000000f0: adf7 a23c 3f2d 823d 667b 2a3e d45e d6bd
-0.035631314 0.06639158 -0.0024835693 0.16436315 -0.063280255 0.1058371 0.031402547 0.019187614
-0.08746982 -0.02872448 0.08469328 0.051955074 0.060171656 -0.026406668 -0.063806966 0.1787205
-0.0027116053 -0.0398142 0.0012975485 0.0008894031 -0.016534604 0.13108303 -0.057302784 -0.021862438
-0.1657723 0.14523318 -0.09608958 0.098024845 -0.06707271 0.06467199 -0.046795107 0.18085295
-0.011617462 0.024617683 0.0125997085 0.054549415 -0.017130833 0.1630641 -0.0036884544 0.1932676
-0.027201192 -0.13651207 0.046482395 0.10372347 -0.08158757 -0.038819116 0.32267895 0.062362026
0.043470033 0.118384205 0.1097011 0.069199875 -0.12468209 0.02946632 -0.09540123 0.102597155
0.15874133 0.037105862 -0.05079471 -0.103384145 0.019893492 0.06356286 0.16648635 -0.10467306

sequential_9/dense_29/MatMul/ReadVariableOp/transpose i1 [16, 64] scale=0.006198624 zero_point=0
00000000: 17fd e520 0c15 ecee 24ff 1805 20e5 1eb7
00000010: 300e 0512 03fc 25ea f4fc 0aec d9e2 fcff
00000020: f7fa d8f9 2501 fdcc de14 2ee1 cf27 8600
00000030: 0d29 d805 01f7 0cc3 0011 1712 292e b222
00000040: 08ea ea0d 26f9 cb09 042e ddeb badb 0d1b
00000050: b425 11d2 0ec0 212f 20f2 ecc7 220d 0a20
00000060: 2701 f1f9 17d2 f700 fd27 0fc1 1ac5 b211
00000070: fec0 e1f7 0e24 0512 d1f3 eb2d 26fe 072a
00000080: 07e0 f418 0ef2 020f fb1b 28e7 e72b 0101
00000090: f7ff 312d 01d9 e700 d61b f5cd e0f5 0533
000000a0: ddf2 261e 1f16 eebd eae5 e891 eeee 8109
000000b0: cae3 0eaa d3fc 1bdb 2402 3407 16cc b910
000000c0: eeed 05e0 d90a 05f4 f121 19f8 2fe1 f4fe
000000d0: 1d02 1b13 ebff 40d0 0dee fcf5 c0e3 f8d8
000000e0: e9e7 e2fa 2e1e fb12 140e faf9 fe33 0400
000000f0: fb26 f8da e2f4 2ad6 f9e5 2f0c 090f 242c
0.14256835 -0.018595872 -0.16736285 0.19835597 0.07438349 0.1301711 -0.12397248 -0.11157523
0.22315046 -0.006198624 0.14876698 0.03099312 0.19835597 -0.16736285 0.18595873 -0.45249957
0.29753396 0.08678074 0.03099312 0.11157523 0.018595872 -0.024794497 0.22934909 -0.13636974
-0.07438349 -0.024794497 0.06198624 -0.12397248 -0.24174634 -0.18595873 -0.024794497 -0.006198624
-0.055787615 -0.037191745 -0.24794497 -0.04339037 0.22934909 0.006198624 -0.018595872 -0.32232845
-0.21075322 0.12397248 0.2851367 -0.19215734 -0.30373257 0.24174634 -0.75623214 0.0
0.08058211 0.2541436 -0.24794497 0.03099312 0.006198624 -0.055787615 0.07438349 -0.37811607
0.0 0.10537661 0.14256835 0.11157523 0.2541436 0.2851367 -0.48349267 0.21075322
0.049588993 -0.13636974 -0.13636974 0.08058211 0.23554772 -0.04339037 -0.3285271 0.055787615
0.024794497 0.2851367 -0.21695185 -0.1301711 -0.4339037 -0.22934909 0.08058211 0.16736285
-0.47109544 0.22934909 0.10537661 -0.2851367 0.08678074 -0.39671195 0.2045546 0.29133534
0.19835597 -0.08678074 -0.12397248 -0.35332158 0.21075322 0.08058211 0.06198624 0.19835597
0.24174634 0.006198624 -0.092979364 -0.04339037 0.14256835 -0.2851367 -0.055787615 0.0
-0.018595872 0.24174634 0.092979364 -0.39051333 0.16116422 -0.3657188 -0.48349267 0.10537661
-0.012397248 -0.39671195 -0.19215734 -0.055787615 0.08678074 0.22315046 0.03099312 0.11157523
-0.29133534 -0.08058211 -0.1301711 0.27893808 0.23554772 -0.012397248 0.04339037 0.2603422
0.04339037 -0.19835597 -0.07438349 0.14876698 0.08678074 -0.08678074 0.012397248 0.092979364
-0.03099312 0.16736285 0.24794497 -0.15496561 -0.15496561 0.26654083 0.006198624 0.006198624
-0.055787615 -0.006198624 0.30373257 0.27893808 0.006198624 -0.24174634 -0.15496561 0.0
-0.2603422 0.16736285 -0.06818487 -0.31612983 -0.19835597 -0.06818487 0.03099312 0.31612983
-0.21695185 -0.08678074 0.23554772 0.18595873 0.19215734 0.13636974 -0.11157523 -0.41530782
-0.13636974 -0.16736285 -0.14876698 -0.6880473 -0.11157523 -0.11157523 -0.78722525 0.055787615
-0.3347257 -0.1797601 0.08678074 -0.53308165 -0.27893808 -0.024794497 0.16736285 -0.22934909
0.22315046 0.012397248 0.32232845 0.04339037 0.13636974 -0.32232845 -0.4401023 0.09917799
-0.11157523 -0.11777386 0.03099312 -0.19835597 -0.24174634 0.06198624 0.03099312 -0.07438349
-0.092979364 0.2045546 0.15496561 -0.049588993 0.29133534 -0.19215734 -0.07438349 -0.012397248
0.1797601 0.012397248 0.16736285 0.11777386 -0.1301711 -0.006198624 0.39671195 -0.29753396
0.08058211 -0.11157523 -0.024794497 -0.06818487 -0.39671195 -0.1797601 -0.049588993 -0.24794497
-0.14256835 -0.15496561 -0.18595873 -0.037191745 0.2851367 0.18595873 -0.03099312 0.11157523
0.12397248 0.08678074 -0.037191745 -0.04339037 -0.012397248 0.31612983 0.024794497 0.0
-0.03099312 0.23554772 -0.049588993 -0.23554772 -0.18595873 -0.07438349 0.2603422 -0.2603422
-0.04339037 -0.16736285 0.29133534 0.07438349 0.055787615 0.092979364 0.22315046 0.27273947

sequential_9/dense_29/MatMul_bias f4 [16]
00000000: 80a6 96bb 665c 25be ebe7 1a3d 5459 c9bd
00000010: fe33 ac3d e026 be3d f16f a03d 6c5d 063e
00000020: 270a b13c 351c 223d fa90 8bbd d05b 8a3d
00000030: 1107 373d 6d44 91bd 7e9c 933d 7785 b7bd
-0.004597485 -0.16148528 0.03781883 -0.09831491 0.08408354 0.092847586 0.07833851 0.13121575
0.021611286 0.03957768 -0.068147615 0.06755793 0.044684473 -0.07093129 0.07207583 -0.08961003
